quant_mnits/mnist_cnn.pt (torch_old, 752338 bytes, 8 tensors)

conv1.weight f4 [20, 1, 5, 5]
00000000: b140 e13d c5c3 0abe 2270 d6bd 17f5 2bbc
00000010: 555f 92be 9ec2 413e a3cb c33c 2e9d 0e3e
00000020: 668f 053d eaed 87bd 8436 aa3d fa63 c23d
00000030: 64b0 503e f544 5e3d 24b6 3a3d a2d2 8cbd
00000040: 8c83 e73c 7d4e 243d 600a 853e 727d 213e
00000050: 39db 0bbe 350c 48be 744c 06be 15d0 01be
00000060: 0bf2 ffbb afd1 c73d e30a 983e b56f 5b3e
00000070: cdd5 44be d5b1 473d 99c0 113e 5666 b73e
00000080: c4cf 163e 5708 87be a42b 95be a661 cd3d
00000090: e50c c83e 6672 8ebd fce1 8abd 458d 68be
000000a0: 7361 c73e 5ee6 6f3d e894 8b3d f9b9 05be
000000b0: d4f6 4abe a094 863e 016f c6bc e800 86bc
000000c0: 8717 0fbe 2569 77bd a586 65be 989b 24be
000000d0: b745 4e3d d8ef 293c 0928 9f3e 50e4 e63d
000000e0: 94d1 60bd fd43 82bd fd30 9d3e 2803 1c3e
000000f0: f9e7 0abe 89d2 303e 373d 933e a5a5 a63e
00000100: afc4 32be d891 df3c 47fb 073e 20ab 063e
00000110: df26 3ebe c020 82be 5044 453e cbd4 c4bb
00000120: 207d d03c b843 e1bd 759d 533c fa2c 3c3d
00000130: 4a00 b13d 6e66 1c3e 5ab8 c2bd 8bdc 433e
00000140: 9c73 36be c74b 42be db92 183d 24c5 823d
00000150: 1707 793e 0764 39be 7169 74be 1751 273e
00000160: 287f 893d ff68 563e 67fa 633c 8100 2abe
00000170: 58e9 eb3d 128e 183e 17ec a4bd 4542 b4bd
00000180: d3fc d13d 752b ff3d d4ef 9dbc 00b7 28bd
00000190: fe9a 633e 587b 663d f380 823e 2848 343e
000001a0: e411 d6bd 87d0 f7bd 4537 c23e 7fed 8a3e
000001b0: 5b85 7e3e 8cb7 9b3c 72b0 013e 4fca d33e
000001c0: 93e8 de3e e181 babd e96f 18bd 9d3c 5f3e
000001d0: fde8 b33e 40cc 923e 9aac 10be fb1a 4abe
000001e0: b2f2 97bd 240f 173e 620c 8c3e 70f4 e2bd
000001f0: eedd e33d d31d 60be 6247 a4be 142f bbbd
00000200: 8b50 5f3e ecc0 a33e 11a1 7fbe 2d25 5c3c
00000210: 8182 993e 9f35 a83e eafa 343e 0dfd 023e
00000220: 4c4e 373e c363 413e fe40 c43c 3a8c e7bd
00000230: 55b5 4abd f3c5 793c 2867 9abd ae85 0a3e
00000240: 44d8 f43d 6083 06bd 5935 b93d 9255 9d3d
00000250: ecce 263e 9536 283e 34cd 31bd ebde 4b3e
00000260: eb55 b5bc 566a 88bc f985 4cbe ded7 16be
00000270: d96d 24be 42f5 e5bd 27e9 003e 9b8c b2bd
00000280: 38bc 29be 5efc d73c 3d7d 193d 327f fe3d
00000290: 7df7 d8bd 75c4 8b3d 1b7d b7bd c2cb 88bd
000002a0: 5a34 22be 032a 8bbd 2aaf f3bb 2e41 ff3d
000002b0: 3dbf 863d 2eca e13d 26a7 973e b5e5 803e
000002c0: 65a9 7c3e 8493 703d 4ec1 16be 40e8 e53d
000002d0: 69db 343c 8f91 26ba 46b7 62be de3d fabd
000002e0: 7a05 4dbe af34 493e 852e 7dbe 84a3 84be
000002f0: 99ec acbd 86b7 cdbd 70d2 763d 8423 d4bd
00000300: d0ce b7bd c5e1 e23d ded3 943e 52dc 27bd
00000310: 524f 7f3e a931 a43e b513 b13e c728 75bd
00000320: 6716 f43c 088b 3ebe 1192 333e abdf a3bd
00000330: fc24 ab3d 789d aa3c 14ea 17bd f924 243d
00000340: 6c65 533e d45b 6b3e ba55 673d cde1 533d
00000350: 93b8 07be b1e3 9a3e e2a4 c73e 9011 193e
00000360: f7f6 e93d 271a 5dbe 2ff7 bfbd 276c 983e
00000370: 3929 87be 9e4d 353d 4457 a3be 09b7 8bbe
00000380: c5d0 c83d b51e 00be ed48 853c b9a0 903e
00000390: 146d 8f3e 1a92 893e 9858 5abd e7ff 33be
000003a0: 0407 853e beef 6d3d 4ae3 69bc 141a d6bc
000003b0: 52c1 81be 534f cf3d 3901 553e dfcf a0bd
000003c0: 3d14 89be 951b 14be 92de 1f3d 181e ae3d
000003d0: b338 7ebc 4356 a8bd b0df 97be 9a78 48be
000003e0: 4d17 a7bd b9a2 653e 6730 4c3e d83e 50bd
000003f0: 74cb 0a3d 879b 043e 2403 773d 0fef f7bc
0.10998667 -0.13551243 -0.104706064 -0.010495446 -0.28588358 0.18921897 0.023900812 0.13927147
0.03260746 -0.066371754 0.08311179 0.09491725 0.20379788 0.05426498 0.04558386 -0.068761125
0.028260969 0.040113915 0.25984478 0.1577051 -0.13657846 -0.19535907 -0.13115102 -0.12677033
-0.007810836 0.09756791 0.29695806 0.21429332 -0.19222184 0.04875358 0.14233626 0.35820264
0.14727694 -0.2637355 -0.29134858 0.100283906 0.39072338 -0.069554135 -0.06781384 -0.2271014
0.38941535 0.058569305 0.06815511 -0.13059224 -0.1982072 0.26285267 -0.024222853 -0.016357854
-0.13973819 -0.060403008 -0.22414644 -0.1607498 0.050359454 0.010372125 0.31085232 0.11274016
-0.05488737 -0.06360624 0.30701438 0.15235579 -0.13565053 0.17267813 0.2875764 0.32548252
-0.17457841 0.027291223 0.13279448 0.13151217 -0.18569516 -0.2541561 0.1926434 -0.006006812
0.02545029 -0.109992445 0.012915959 0.04594133 0.08642633 0.15273449 -0.095078185 0.19127099
-0.17817539 -0.1897422 0.037249427 0.06385258 0.24319111 -0.18104564 -0.23868348 0.16339527
0.06713706 0.2093849 0.013914681 -0.16601755 0.11519116 0.14897946 -0.08052843 -0.088017024
0.102533005 0.12459461 -0.019279398 -0.041190147 0.22227094 0.056269974 0.25489005 0.1760565
-0.10452631 -0.1210032 0.37932792 0.2713432 0.24855559 0.01900842 0.12664965 0.41365287
0.43536815 -0.09106804 -0.0372161 0.21800466 0.35138693 0.28671455 -0.14128342 -0.19736855
-0.07419337 0.1475187 0.27353197 -0.11081779 0.11126314 -0.21886377 -0.3208571 -0.09139839
0.21808068 0.31983125 -0.24963786 0.013436598 0.2998238 0.3285341 0.17673841 0.12791844
0.17900962 0.18885712 0.023956772 -0.11306043 -0.049489338 0.015244949 -0.07539207 0.13527557
0.11955312 -0.032840133 0.090433784 0.07682337 0.16289872 0.16427071 -0.043408588 0.19909255
-0.022135695 -0.016652267 -0.19972982 -0.14730784 -0.16057529 -0.1122842 0.1258894 -0.087182246
-0.16575706 0.026365455 0.037472952 0.12426604 -0.1059408 0.068245806 -0.08959409 -0.06679489
-0.15840283 -0.067951225 -0.0074366527 0.12463604 0.065794446 0.11024891 0.29619712 0.25175253
0.24673994 0.058734432 -0.14722177 0.11225939 0.01103864 -0.00063540874 -0.22140226 -0.122188315
-0.2002162 0.19649003 -0.24724777 -0.25906003 -0.08443565 -0.1004477 0.060259283 -0.103583366
-0.08974993 0.11078218 0.29067892 -0.0409816 0.24932602 0.32069138 0.34585348 -0.05985334
0.029795839 -0.18607724 0.17536189 -0.08001646 0.083566636 0.02082704 -0.03708847 0.040074322
0.20644158 0.22984248 0.05647824 0.051729012 -0.13254003 0.3025184 0.38992983 0.14948106
0.11424058 -0.21592008 -0.093733184 0.29770014 -0.26398638 0.044263475 -0.31902516 -0.27288082
0.09805445 -0.12511714 0.016270125 0.28247622 0.28012908 0.2686928 -0.053307146 -0.17578088
0.25981915 0.058089964 -0.014275381 -0.026135482 -0.25342804 0.10122552 0.20801248 -0.07852148
-0.26773253 -0.14463647 0.03903062 0.08501834 -0.015516448 -0.08219578 -0.29662848 -0.19577256
-0.08158741 0.22425355 0.19940339 -0.050841182 0.033885434 0.12949954 0.06030573 -0.03026536

conv1.bias f4 [20]
00000000: 6e43 03be 989d 2bbe 8da0 40be c28e 94bd
00000010: e3c0 1c3d 2718 e5bd 452b 47bd 3323 f8bd
00000020: f28a 463e 935e 9fbb 9598 a0bd e9a3 6c3d
00000030: 3da8 0dbe 8c83 3e3e 836d 893e 1c4c 1abe
00000040: 9163 dfbd d0db a8bd 1728 e5bd 76cf 783d
-0.12818691 -0.16759336 -0.18811245 -0.072537914 0.03826989 -0.11186247 -0.04862525 -0.12116089
0.19388941 -0.004863569 -0.07841603 0.057773504 -0.13833709 0.18604869 0.26841363 -0.15068096
-0.10907663 -0.08245051 -0.11189287 0.060744725

conv2.weight f4 [50, 20, 5, 5]
00000000: ee66 5ebd 47c6 1ebd 1b5b c33c f8f6 be3b
00000010: bb8c f43b 8a1e 3fbd 77e9 b63c aea2 5e3c
00000020: 540d 5bba 9f97 8fbc edc8 943c f370 a43c
00000030: 6dd5 cd3c 7575 843c d2b2 8dbc 101a 35bc
00000040: b05f 843d f45d f83c f95d 82bc f3c8 213d
00000050: 0236 e13c a308 93bc 6555 11bc 60d9 01bb
00000060: 962d c8bc 117f 413d 01e9 5cbd fbe2 e83c
00000070: a42b 083a acd6 0f3c a2f4 843c 61fb 9fbc
00000080: b9f6 1e3d 07d0 74bd a426 0abd 4ba1 523c
00000090: ba39 2d3d 81bc 00bd f912 7ebd 25ba 03bd
000000a0: 216d 1abd db6d 32bd da7f d9bc f8be 51bd
000000b0: 1a6a 833c 23d3 0a3b a7cb 81bd da21 5dbd
000000c0: a6cf e6ba ab6b 293c 8b8d 003d 9a30 003c
000000d0: d9e6 313c 63d1 14bd 0819 89bc 3c3b a33c
000000e0: abcb 403d d545 e1bb 6864 7c3c 849a b0bc
000000f0: 9f9e 113d 1f58 debb 5c50 dabc 20e3 9c3c
00000100: 61e1 5a3b ad3f 7cbd 0935 2dbd 2ff1 d839
00000110: bb62 953c 4f23 693d a496 99bb 4d0c 8f3c
00000120: ef3b e13c 7baa 173d 39e9 46bb 55a8 dc3c
00000130: bd90 093d 9ba3 81b9 f55f d3ba b1a8 483d
00000140: b484 383d 531c 4a3a 53ae 1a3d 960c 963b
00000150: df6d b4bc 5530 3ebd cc12 9b3c 9f68 033d
00000160: 33e1 49bd 84c6 ca3c e192 243c 46bd a6bc
00000170: 805f e4bc 07c3 293c f092 dc3b 0011 e63c
00000180: f82c 683c f5e5 d23c 3a9b 1a3d 5ca0 7c3b
00000190: ac16 ad3b e35d 7bbd c225 6f3d d682 333c
000001a0: 56f9 d13c da1f 823d 820d 333b 0c7b 003d
000001b0: 6f4d 0dbd beb7 e73c cad5 353d a0b5 26bd
000001c0: cd0a 913b a7c4 d6bc 0af9 01bd 252b 7fbc
000001d0: eca5 12bd 3d8d acbc 2cfc 1dbd 31a6 223b
000001e0: 02a5 323c 7f2d 46bd c767 95bb dc9c 4e3d
000001f0: 5614 113d 825f 093c 0dae 45bd 8818 ac3d
00000200: 3689 f5bc b89e 2dbd 03a8 f4bc 906a 8d3d
00000210: c526 dcbc f385 fcbc 90b7 48bd 514c 8dbb
00000220: e614 63bc 384d 233d d7cf 99bc cd77 d43b
00000230: 115c acbd 8501 0d3d 89a8 42bb b97a 5cbd
00000240: d48a d43c ae4b 99bc 0abb b93c ddb6 42bd
00000250: 0608 c0bc dd04 02bd 5069 123d 728a e2bb
00000260: 64f3 2fbd cc60 9aba 6a33 4fbc ad05 133c
00000270: 1c46 f0bc 4ad1 06bd 3434 f93c 7963 ecbc
00000280: b58a ef3c dd14 083d 77a5 adbc 9b27 50bc
00000290: 5b90 fd3b 90b3 48bd 8691 233c 4686 b4bb
000002a0: b5e2 59bc d553 0abd 95e7 953c 3448 efbc
000002b0: 5614 12bd dfe5 11bc 6bc4 d9bc 9eb5 e5bb
000002c0: 0d5a 753d 0e51 63bc 3a28 4e3d c040 1e3d
000002d0: 73d1 b7bc 3588 a8bc 899e 263c cb9e ec3c
000002e0: 86b1 70bc 36fc d9bb a04e 893d 87f1 683d
000002f0: 6a41 323d 2682 01bd cfb6 afbb 6121 5bbc
00000300: 27bf 463d d090 b1ba d6e6 f7bc dd6b 4fba
00000310: 4923 83bb 9ce1 6c3c e3e0 a1bc cfbd ccbc
00000320: 8f90 e03b d9d6 5f3d ca59 9f3c 5cda 27bc
00000330: 7efc 223d e708 f43c 71fb 153d b64a 9ebc
00000340: 2e0c a03c ae0f 99bb e427 3b3d 1ef5 533d
00000350: 1c57 223c 75cc 87bc d0a4 0f3c 6429 ed3c
00000360: 3286 813d 75ce 7b3b d1ac 203d ad3c 5dbc
00000370: 5838 36bd 39ee a3bc 6725 263d f217 f53c
00000380: 6be9 47bd b8e4 fc3a 269e 273c b1c9 1f3d
00000390: 5b96 bd3c d03e 1d3c 4d6c 9e3c 2a7e 4a3d
000003a0: f9d1 033d 36ed 29bd 2592 4aba 8105 7d3d
000003b0: b001 3c3d e4f3 083d d07e 24bd 431e babc
000003c0: 353e 03bd d89e 94ba 8cd5 603d c825 02bd
000003d0: 1311 b4bc 64d3 fc3c 2b68 06bc 8aaf 283d
000003e0: e5a3 c03c 6e1b 983c 75d6 3bbd 3f4f bdbc
000003f0: 3426 44bd fb3a 143d 41aa 043d b5d0 4fbc
-0.05429738 -0.03876331 0.023847153 0.005827781 0.0074630654 -0.046659984 0.022328122 0.013588591
-0.0008356173 -0.017528353 0.018162215 0.02007339 0.025126183 0.01616929 -0.017297182 -0.011053577
0.064635634 0.030318238 -0.01591395 0.03949828 0.027491573 -0.017948454 -0.008870457 -0.0019813403
-0.0244358 0.04724032 -0.053933147 0.028428545 0.0005194491 0.008779209 0.016229931 -0.019529046
0.03880951 -0.059768703 -0.033728257 0.012855838 0.04229138 -0.03142977 -0.062029812 -0.032159943
-0.03770173 -0.043561798 -0.026550222 -0.051207513 0.016041804 0.0021182976 -0.06337672 -0.05398736
-0.0017609491 0.010340611 0.031384986 0.0078240875 0.010858261 -0.0363325 -0.016735569 0.019925706
0.047069233 -0.0068747797 0.015404798 -0.021558054 0.035551663 -0.006785407 -0.026649646 0.01915127
0.0033398496 -0.061584163 -0.042286906 0.00041378426 0.018235555 0.05691844 -0.004687147 0.01746192
0.027494399 0.037027817 -0.0030351414 0.026935736 0.0335853 -0.00024726693 -0.001612662 0.048989
0.04504843 0.0007709909 0.037763905 0.004579137 -0.022025047 -0.04643281 0.018929861 0.032082196
-0.049287032 0.024752863 0.010044784 -0.020353924 -0.02787757 0.01036144 0.0067313835 0.028084278
0.014170878 0.025744418 0.03774569 0.003854773 0.0052822437 -0.061368834 0.058385618 0.010956487
0.025631588 0.063537315 0.0027321284 0.031367347 -0.034497675 0.028285857 0.04439334 -0.040700555
0.0044263364 -0.026216818 -0.031731643 -0.015574251 -0.035802767 -0.021063441 -0.038570568 0.0024818296
0.010903599 -0.048383232 -0.0045594904 0.05044256 0.035419784 0.008384587 -0.04826169 0.084031165
-0.029972654 -0.042387694 -0.02986527 0.06905091 -0.026873956 -0.03082559 -0.049003184 -0.004312076
-0.013859963 0.039868563 -0.018775864 0.006484008 -0.08415998 0.034425277 -0.0029702506 -0.053827975
0.025945105 -0.018712845 0.022672195 -0.047537673 -0.023441326 -0.03174292 0.035744965 -0.0069134766
-0.042956725 -0.0011778115 -0.012646535 0.008973521 -0.029330306 -0.032914437 0.0304204 -0.028856026
0.029240945 0.03322302 -0.021197064 -0.012704755 0.007738156 -0.04899937 0.009983426 -0.0055091707
-0.01329868 -0.033771355 0.018298903 -0.029209234 -0.035663925 -0.008904903 -0.026582917 -0.007010176
0.059900332 -0.013874305 0.05033133 0.03863597 -0.02243874 -0.020572761 0.010169634 0.028884312
-0.014690762 -0.0066523803 0.0670445 0.056870963 0.043519415 -0.03161826 -0.0053623687 -0.013374657
0.04852214 -0.0013547186 -0.030261438 -0.0007912496 -0.004002009 0.014458086 -0.019760555 -0.024992852
0.00685317 0.054648254 0.019451994 -0.010244932 0.039791577 0.029789401 0.036616746 -0.019322734
0.019537058 -0.0046710586 0.04569234 0.051747434 0.009908464 -0.016576985 0.008767322 0.0289504
0.06324424 0.0038422619 0.03922731 -0.013503236 -0.044487327 -0.020011054 0.040563013 0.029918645
-0.04880659 0.0019294238 0.010230577 0.039010707 0.023142984 0.009597495 0.019338751 0.049436726
0.032182667 -0.041485988 -0.00077274657 0.061772827 0.045900047 0.033435717 -0.04016 -0.022719508
-0.032041747 -0.0011338843 0.054891154 -0.031774312 -0.021980798 0.030862518 -0.0082035465 0.041183032
0.023515651 0.018567767 -0.04585882 -0.023109077 -0.047887996 0.03618906 0.03238893 -0.012684037

conv2.bias f4 [50]
00000000: 61c1 f4bc d7ab b5bc 84f4 143d 3b89 583c
00000010: 7936 00bd 1081 eebc c64b da3c f480 70bc
00000020: 27a2 1d3c db2b d43c 12e9 e1bc 63d1 1fbd
00000030: 184e 13bc 2d0d ce3b b83f c2ba 1e3d 0bbc
00000040: be17 1f3d 1d5a e8bc a988 acbc 2906 b5bc
00000050: 9fa2 ca3c f5ff ba3c 731d b23b e968 103c
00000060: 8785 03bd 99e3 25bc 32db b9bb d9f5 533d
00000070: d597 e83c 7630 b7bb 23f9 123c f200 ecbc
00000080: 9725 873c d980 15bd 4699 aebc 54fc 2a3d
00000090: e371 b43b d055 a93b 80c9 a2bc b135 e0bb
000000a0: ebe8 793c c4bf 043d 176c 933c 5c12 23bb
000000b0: e1da ddbc 9b08 0c3d 56f8 5d3c a44d bebc
000000c0: 1bca fcb9 c0ed 4bbd
-0.029877366 -0.022176666 0.036366 0.013216312 -0.03130195 -0.029114276 0.02664746 -0.014679182
0.00962118 0.025899818 -0.027576957 -0.039018046 -0.008990787 0.006288192 -0.0014820015 -0.008498458
0.038841 -0.028363282 -0.021061258 -0.022097664 0.024735747 0.022827128 0.0054356395 0.008814075
-0.032109763 -0.010125064 -0.005671882 0.05174813 0.028392712 -0.005590494 0.008970532 -0.028809045
0.016497416 -0.03649983 -0.02131332 0.041744545 0.0055067404 0.0051677004 -0.019871473 -0.006842338
0.015253286 0.032409444 0.017995877 -0.002488277 -0.027081909 0.034187894 0.013547977 -0.023230381
-0.00048215766 -0.049787283

fc1.weight f4 [200, 800]
00000000: 003e 633c 9421 e3bc 9fb9 d1bc 6107 0d3d
00000010: 0280 c5bc d803 d73c f4aa 0ebd 3db9 b9bb
00000020: 5b54 0cbd 8089 c83c 32a5 cbbc a873 9b3c
00000030: c7af 653c 237b f93b 3f0a 09bd 1874 5f3c
00000040: 2a91 533a 1656 dfbc 0ce9 a9bc 19d8 dc3b
00000050: 1fa0 b539 8fa5 2cbc f19a 93bb fc67 e6bc
00000060: 8b48 593c 2cdb 0eb9 f501 e93c e251 d83c
00000070: c91b a9bc aa95 533c f051 513c 4fe8 e2bb
00000080: b50a c6bb 17f4 48bd 8569 7abd 1364 5cbc
00000090: 554d 80bc 2304 3d3d a61b 163d 6bbf 1e3d
000000a0: 1302 953c 905d d6bc 215f 223c a2f6 173d
000000b0: 6351 843c 9c05 d0bb d964 ba3c b0a8 58bc
000000c0: e8c9 efbc 613f 123d e52b 3b3b 4d8d 023d
000000d0: a0e8 b3bc 5d8e e5bc 929f 2ebd e7cd 98bc
000000e0: f764 fabc 63fa b3bb a8ed 1ebd 3757 b53c
000000f0: cb74 cfba 2fac e3bc 2a0d 3a3d 20a9 29bc
00000100: 169c 90bc 1a98 7dbc 0e4e c63c af86 f23c
00000110: 455d 1c3a 4270 87bb e86a 02bd 00da ad3c
00000120: d78e 853c e3b9 a43b a432 31bd d521 03bd
00000130: ab8a 423d 3003 0d3d d33e 0f3d d840 ecbc
00000140: 8420 59bc 03c7 22bd 85a1 893a d25b 50bc
00000150: fb7d 10bc f83d d33b 59c8 e0bc c941 833c
00000160: 898f 573c ae9a 1c3b 7c3c 8f3c d55d 203d
00000170: 5d0f cc3c f78b 0d3d 9842 6c3d e327 08bd
00000180: 1a2c 2fbc da22 2c3c e209 ffbc 1bbe 1f3c
00000190: 1ea0 f939 f178 293d 4124 ea39 50f1 883b
000001a0: 5fb4 3cbb 06df 503c dd81 1e3b b08b 04bc
000001b0: eab3 303d f686 ecbc 56de d6bb 3832 4f3c
000001c0: 0ae4 e1bc 330a f0bc e7c7 1fbd 58c2 f3bc
000001d0: 797d 8cbc ebbc 473b 9a0a 8c3c 81a9 2a3c
000001e0: 0445 adbc 422f 863c 9b04 573d 4f3f 22bd
000001f0: 6897 563b c123 8f3c 0609 96bc e641 8f3c
00000200: e05f f93b f059 c3bc 490b 5ebd 96b6 cbbc
00000210: 692a 16bd 67aa 0c3d 1f41 28bd 53ec 5dbb
00000220: c7b7 353d e8a4 a33c 70b1 233c 4a63 c73c
00000230: 1e43 4d3c ffb8 203d fe35 ea3c 0bbb a3bc
00000240: 9d4d dbbc 9325 46bb 9ae1 353c 9a60 123c
00000250: 6173 733c ed79 3cbd 2856 833c c5f4 95ba
00000260: 11c9 023d adee 853d 237c 903c e6bf 2f3c
00000270: 1a09 21bc f576 10bd d9bc 94bc 60f7 acbc
00000280: aad5 a93c e901 ccbb dabd 673c fc14 aa3c
00000290: 36d6 f1bb 2544 1b3d d57c e63c 22f7 d0bc
000002a0: 371c 493c 4bd1 08bd 158b 7ebb 787a 933c
000002b0: 74b7 223c 3a47 893c da52 23bd ed8e 203d
000002c0: 3c5f 95bc d1bc e0bb 948e 3aba c10a 56bd
000002d0: 3358 0fbd 1f98 04bc 16e9 cfbb a607 ffbc
000002e0: 1a80 96bc 0074 f4bb ce4c 6c3b fdc8 963c
000002f0: 7852 10bc 6db4 4cbd f876 e6bc 2333 f3ba
00000300: 29fa 58bb 3479 2b3d 6d55 1abc 6e9a 5cbc
00000310: 54ff a638 9c76 babc 1d6f db3c eda9 1b3d
00000320: 5637 babc 410b c0bb 95e2 45bd c7e7 71bc
00000330: c884 d13c d378 d0bc 6ead a43b 2f75 533c
00000340: 80f5 2ebc cdcb 0d3d 2813 33bd 64f0 dabb
00000350: 3649 1d3b 8b06 d93b 29a8 8f3c 2e11 88bc
00000360: 062d bb3c fe2a 383b 9cf0 dd3c 97b2 c1ba
00000370: 81c5 913c 3f5f 9f3b 8226 363b b9a4 11bd
00000380: c55d 973a 158f c6bc ddcb 0cbc 1235 3ebd
00000390: 9352 39bc 64f5 a4bb 0c26 753c 9d30 24bc
000003a0: c2cf e3bc 12cf 1dbb d6aa 94bc 22ff d2bc
000003b0: e67d c83c 68f0 febc c6be b5bc 3190 aabc
000003c0: e44b 87bc 4da2 2d3d a906 f8bc 9621 75bd
000003d0: 892f eabc 9f5e 97bc 8917 493d f820 a9bc
000003e0: ba3d d83c ca8d 9ebb 43bc 413b c4da f53c
000003f0: 3f51 fc3a 0eab 18bd b58f ba3c 0c59 a4bc
0.013869762 -0.027725972 -0.025601206 0.034430865 -0.02410889 0.02624695 -0.034831002 -0.005667834
-0.034260135 0.024479628 -0.024859045 0.018976048 0.014018959 0.007613556 -0.033457037 0.013638519
0.00080706424 -0.027262729 -0.020741008 0.006739628 0.0003464231 -0.010537519 -0.0045045544 -0.028125755
0.0132619245 -0.00013623823 0.028443316 0.026406232 -0.020643132 0.012914101 0.012775883 -0.006924666
-0.006043757 -0.049060907 -0.061135788 -0.013451594 -0.015661875 0.046146523 0.03664746 0.03875677
0.018189466 -0.026167661 0.009910376 0.03710044 0.01615209 -0.006348325 0.022753166 -0.013223812
-0.029271081 0.035704974 0.0028560099 0.031873036 -0.02196151 -0.028021986 -0.042632647 -0.01865287
-0.030565722 -0.005492495 -0.038800865 0.022136314 -0.0015827654 -0.027792064 0.04542271 -0.010355264
-0.017652553 -0.015478158 0.024207141 0.029605238 0.0005964826 -0.004133255 -0.031840235 0.021222115
0.016303463 0.0050270422 -0.043261185 -0.032014687 0.047495525 0.034426868 0.034972023 -0.028839514
-0.013252381 -0.039740574 0.0010500407 -0.012717204 -0.008819099 0.0064465962 -0.027439283 0.01602258
0.01315678 0.0023895907 0.017484896 0.039151985 0.02490967 0.03455731 0.057680696 -0.033241164
-0.010691667 0.010506356 -0.031132642 0.0097499145 0.00047612278 0.041375104 0.0004465897 0.0041791573
-0.0028794033 0.012748485 0.0024186291 -0.008089945 0.04314033 -0.028872948 -0.006557266 0.01264625
-0.027574558 -0.029301738 -0.039009 -0.029755756 -0.017149674 0.0030477594 0.017094899 0.010416389
-0.021151073 0.016379956 0.052494626 -0.039611157 0.0032744054 0.017473103 -0.01831485 0.017487478
0.007610306 -0.023846596 -0.05420998 -0.024867337 -0.03666154 0.034342196 -0.04107773 -0.0033862784
0.044364717 0.019976094 0.009991035 0.024339337 0.012528209 0.039238926 0.028590199 -0.01998665
-0.026770407 -0.0030234798 0.011101151 0.008934164 0.014859051 -0.046014715 0.016032293 -0.0011440745
0.031930033 0.065396644 0.017637318 0.0107269045 -0.00982883 -0.035269696 -0.018156456 -0.021114051
0.020731766 -0.0062258136 0.014144385 0.02076196 -0.0073802723 0.037906785 0.028135696 -0.025508467
0.012274793 -0.033402722 -0.0038840224 0.018002734 0.009931434 0.016757596 -0.039873935 0.039198805
-0.018233888 -0.006858446 -0.0007116583 -0.05225635 -0.034996223 -0.008092909 -0.0063449247 -0.031131577
-0.01837163 -0.0074601173 0.0036056521 0.018406386 -0.008808725 -0.049976755 -0.0281329 -0.0018554669
-0.0033108091 0.041863635 -0.009419781 -0.013464553 7.9630554e-05 -0.022761635 0.026786381 0.03800385
-0.022731464 -0.0058607166 -0.04831179 -0.014764733 0.02557601 -0.025448238 0.0050255572 0.012906357
-0.010678649 0.034618188 -0.04371944 -0.006681489 0.0023999936 0.0066230944 0.01753624 -0.016609754
0.022848617 0.0028101797 0.02709227 -0.0014777955 0.017794373 0.004863649 0.0027793949 -0.035557482
0.0011548331 -0.024238149 -0.008593527 -0.04643733 -0.011311191 -0.0050341357 0.014962684 -0.010021356
-0.027809028 -0.0024079722 -0.018147867 -0.025756422 0.024474096 -0.031120494 -0.022185694 -0.020820709
-0.01651568 0.04239111 -0.030276613 -0.059846483 -0.02858712 -0.018477736 0.04909471 -0.020645604
0.026396621 -0.00483868 0.0029561676 0.030011542 0.0019250287 -0.037272505 0.022773603 -0.020061992

fc1.bias f4 [200]
00000000: d714 113c 800d 5e3c c473 50bc 990e 6d3c
00000010: 6e87 af3c 0886 283b 7b7c 87bb 4650 ccbb
00000020: 5174 1a3d e3c4 98bb 6d53 cdbc 7874 cf3c
00000030: 7678 9bbb f091 dabc 45ec f43c f6a2 973a
00000040: 4ded 893c 7b49 063c e462 bfbc d641 bdbc
00000050: b6b8 7e3c c599 003d 2249 66bc cc0f 26bc
00000060: 8870 1b3d e443 d1bc b466 15bc 66f4 b8bc
00000070: f77c 66bb 608d 0e3c 38d7 e8bc 131c 27bc
00000080: a5d2 b1bc 43bc e03b 8b9e a93c 2b0d 003d
00000090: 59d8 0abd 0dc4 423a d8a3 c4bc 6de4 7b3c
000000a0: cc5a 23bc 40fa febc d5e2 acbb 1ec4 d83c
000000b0: 22f1 9bbc 2d05 a93c bdf4 fabb b0a1 243b
000000c0: 8916 a73c 753c 4aba 746e 693b cbe6 82bc
000000d0: 0efa a83c 52bb adbb b6b5 06bd 9594 c03c
000000e0: 7707 ddbb ffbb 44bc bbd7 293d d112 e93c
000000f0: 224a 95bc 1b4c 913c 9e83 1d3b c8c7 5fbb
00000100: 6706 d9bc 439a 0ebc 4eee 38ba ccd7 e13c
00000110: e5ec 14bc 2b93 c9bc 6b18 81bc 4f48 f53c
00000120: 1148 a63c da10 d83c a262 c6bc 1c90 8e38
00000130: 061d 25ba ee4c de3c de15 92bc 7890 12bd
00000140: 4939 923c 2a75 183c e672 28bc f78e 7d3a
00000150: bc50 d3bc 4b33 453c f1d0 52b9 db4b b2bc
00000160: 220b 28bc 03b4 aebc 149d 6d3c d93a aabc
00000170: e56c 2bbc 6966 e7bc 31de efbc 215b 083a
00000180: 4da3 973c a4cc 563c fb0b d3bc c478 013d
00000190: f053 5f3c aa0b 713c 3357 c33b 2cee ecbc
000001a0: 2060 86bc fc7b 50bc 7c42 db3c 0c49 3f3c
000001b0: 5fcf 823c 3923 d3bc 76fd 6dbb 08e1 9cbc
000001c0: 2e5c 1f3a 269e 74bc 7ad4 8a3c c1b3 7cbc
000001d0: df82 6abc 92f0 caba 0f37 02bd 5c17 0ebd
000001e0: 9397 a6bb 9976 50bc d044 d13c b195 553b
000001f0: be9c 993c ca37 4bbc 22f4 b03b 7729 a23c
00000200: 22b7 b53c 3d40 4d3b ff55 943c 562b 3abc
00000210: a82d be3c e1b4 723c f5c7 993c 0c26 2c3c
00000220: acbb 9fbc e76b 103d ff2d 4d3c 1b8a 25bc
00000230: d048 353c b4d4 a83c 69ab 1dbc b083 19bc
00000240: 3a57 973c dbe3 273c 0f13 b83c 7fe1 e93b
00000250: 2f67 c23b 467a 583b 4fd0 933c 9508 abbc
00000260: 9b42 00bd fba8 67bc 06d7 02bd e07e 893c
00000270: 81d7 4bba 20c8 cdbc 3fa9 c5bc 5e9a b5bb
00000280: 42b1 7bbb 0e51 063c bdb4 a23c 41bc 9abc
00000290: 4254 da3c 4dcb fd3c 9f14 2b3c 8452 b13c
000002a0: 6bb5 a6bc c222 33bc 4ad5 083d 10cf fcba
000002b0: eeb5 943c d076 e93c 48bf c7bc ab3c f3bc
000002c0: 4a9e d8bc 4cd9 46bc 0912 bc3c 4321 f53c
000002d0: d174 c83c eb6b 0bbc d71e c63b 83c5 cbba
000002e0: c812 873c 3819 013d 7325 82bc 4785 703c
000002f0: 2f42 f93c 769f 43ba a594 d73c c4c7 35bb
00000300: a8d8 d03b c678 f3bc 01c6 44bb eb8a 973c
00000310: 25e1 af3b 13bf 033b 76ae 003d a33e 0a3c
0.008855066 0.013553023 -0.012722913 0.014468812 0.021426883 0.0025714654 -0.0041347123 -0.0062351553
0.037708584 -0.0046621426 -0.025064195 0.025324091 -0.0047445847 -0.026680917 0.029897818 0.0011568952
0.016836787 0.00819623 -0.023362584 -0.023102682 0.015546968 0.031396646 -0.014055522 -0.010135602
0.037949115 -0.025545068 -0.009118725 -0.022577476 -0.00351697 0.008700699 -0.028422937 -0.0101995645
-0.021706888 0.00685838 0.020705482 0.031262558 -0.03389773 0.00074297265 -0.024003908 0.015374285
-0.009970378 -0.031125188 -0.005276064 0.026460703 -0.01903588 0.02063235 -0.0076585696 0.0025120787
0.020396488 -0.0007714697 0.0035618814 -0.015979191 0.020627048 -0.0053018713 -0.032888137 0.02350835
-0.0067452746 -0.012007712 0.041465502 0.028451355 -0.018223826 0.017736485 0.0024034749 -0.0034146179
-0.02649231 -0.008703771 -0.0007054553 0.02756872 -0.009089683 -0.024606308 -0.015758714 0.029941706
0.020298036 0.026375223 -0.024216954 6.79793e-05 -0.00062985753 0.027136292 -0.017832693 -0.035782307
0.017849581 0.009305278 -0.0102813 0.00096724875 -0.025795333 0.012036155 -0.00020104997 -0.021764686
-0.0102565605 -0.02132607 0.014502782 -0.020780014 -0.010462974 -0.028247075 -0.029280754 0.00052015675
0.018510485 0.013110314 -0.025762549 0.03160931 0.013630852 0.014712254 0.0059613227 -0.028922163
-0.016403258 -0.012724873 0.0267651 0.011675131 0.015968023 -0.025773631 -0.0036314405 -0.019150272
0.00060791045 -0.014930284 0.01694702 -0.015423716 -0.014313429 -0.0015483072 -0.03179079 -0.034690246
-0.005083987 -0.012723588 0.025545508 0.0032590444 0.018751498 -0.012403438 0.0054001966 0.019795163
0.022182051 0.0031318807 0.018107412 -0.011362871 0.02321513 0.014813633 0.018772105 0.010507118
-0.019498669 0.035259154 0.012523173 -0.010103728 0.011064723 0.020609237 -0.009623387 -0.009369776
0.01847421 0.010247196 0.022470025 0.007137477 0.0059327106 0.0033031865 0.018043665 -0.020878116
-0.03131352 -0.014139409 -0.031943344 0.016784132 -0.0007775948 -0.025119841 -0.024128554 -0.0055420836
-0.0038405214 0.008198036 0.019861573 -0.018888595 0.026651505 0.03098073 0.010441928 0.021645792
-0.020350179 -0.01093358 0.033406533 -0.0019287784 0.018153157 0.028499037 -0.024383202 -0.029692015
-0.026442666 -0.012136769 0.022957819 0.029923087 0.024469765 -0.008509616 0.006046157 -0.0015546534
0.016488448 0.03151819 -0.015886998 0.014680213 0.030427067 -0.0007462421 0.026315996 -0.0027737478
0.0063734837 -0.029720675 -0.0030025246 0.018498858 0.0053674155 0.0020102903 0.03141638 0.008437785

fc2.weight f4 [10, 200]
00000000: 6ca9 273e ef92 24be 1f39 8cbd 414e bebc
00000010: f567 b5bc 4f1f e0bc 34fd 103e a16c b6bd
00000020: 88a6 893d be93 d03d 9a5b 023d e18b 78bd
00000030: 63d6 dfbd b0e1 053e 8ad1 c0bd ee48 7fbd
00000040: 976f a8bd 261c 7f3d a8ad 09be f0ff 06be
00000050: 0e1f 263e 1756 163d 9acd 0bbd 8628 313e
00000060: fe9d 343d 2eb3 02be 744e 733d 318f a63a
00000070: 0afc d23d 1ea1 ffbd 9ec4 2abe b746 813d
00000080: d9f4 15be f751 92bb c818 31bd 1ea5 263e
00000090: d5d6 47bd f55f fe3d c360 f3bd 03cf 773d
000000a0: 101f cc3c abff f03c 98c2 333e 6cbd 2b3e
000000b0: 930f 9b3b c3de 4ebe 92e3 56be 3233 14bd
000000c0: 5dbe 01be 3296 e03d 5e02 46bd b830 b83d
000000d0: 9ecc 91bd db89 d5bd 5e80 81bb 462b be3d
000000e0: 90c3 81bd fffa e73c 4759 cb3d 3fc3 b93d
000000f0: 21c9 43bc 9a53 873d 4839 80bd d148 83bd
00000100: 31df 3ebe 7cb3 94bd f77a 1c3d 4d27 fb3c
00000110: ac83 02be 18c7 00be c0f6 843d e26f 7dbd
00000120: 5cd4 c33d 0508 7b3b 7483 533a 48ba 873e
00000130: c7ee 9d3d 6385 0e3e da49 c3bd f02a 77bd
00000140: 5a1d 97bd 8610 95bd 068e 1abd 3f49 c5bd
00000150: 6f62 ac3d 89f1 bab9 92e5 023e bb22 833d
00000160: 2016 30bd 8fdc 613b 2a13 743d d2ad d83c
00000170: ee85 913d 2afa 43be 8009 49bc 4bca 20be
00000180: 340a f23b dd38 c63c aa45 06bd d1ec 60bd
00000190: 9d3d 09bd 064e 2bbd f918 50be c2db cf3d
000001a0: c4ba 1ebe 94c1 1cbd 2c5e a43c c44b 9e3d
000001b0: 64a6 e7bd af06 d23d ead1 a73e 5716 073e
000001c0: 17ce 26be 9ad7 383e ebc1 e03d 8a98 d1ba
000001d0: 66d8 dabd b0bf 903d 2622 793d 3d0e babd
000001e0: da42 9e3d 6498 b13d 0408 723d 3343 12bc
000001f0: 52fb 433d 281d d03c 1e21 afbd 6b80 363b
00000200: bac2 263e 1a1e 04be a37f 0c3d fe91 fb3d
00000210: 00a3 843d 5971 243e 0f5d 8c3c 67dc 303d
00000220: 89fe 673d 7902 eebd 3a17 98bc ea3c 6c3d
00000230: 377b 383d 1d01 b63d 5b51 bbbd 7637 8e3d
00000240: 7846 be3d 9277 ce3c d47f a6bd e53b a63d
00000250: 8f13 893d ce41 913d 9c28 f93d f18e 723d
00000260: 90fe 83bd e665 9bbd cbda 723e 1a99 523c
00000270: f102 d2bd e512 dabd 597a 613e c108 a5bc
00000280: 7cc0 1c3d 54a5 4bbd fa51 82bd 1e2d e33d
00000290: bc92 42be 953a 043e 6dbe cbbd f930 853d
000002a0: d7ce 8538 92f3 df3d 889f b03d 8774 28be
000002b0: 6d1f c13d 361a 643b 5f6d 3f3c 08e4 a33c
000002c0: 77a0 c83d c970 48be 02ca 43bd 9ea9 2f3d
000002d0: 1caa f83d c37d 2f3d c495 53bd 2cdb 2bbe
000002e0: 9805 e2bc c3df a1bd ae04 313d 86cd 98bd
000002f0: 52d1 ba3d 1b83 a93d 56a6 3abb 1949 4c3d
00000300: c7eb d2bb 89c5 4b3d 889b 5d3d 332b a33d
00000310: 2d9e e1bd 32d8 243e 9561 503e 3a6c a3bc
00000320: c6bc 60be 0170 a53d 23d5 b13d b935 023d
00000330: 3d3f f93c a7d2 e43d c18b 843d 94ca 093e
00000340: ef5b b33d 7280 8cbd f514 693e 64ec 93bd
00000350: bca1 debd 5a48 09bd 7704 6a3e d960 debc
00000360: f052 9b3c 6600 073e c479 dc3d eb69 7b3d
00000370: 36db 3a3c 6f0d 95bc f7dd 803a 453d 333d
00000380: 5015 233e ab73 79bd e491 a93d 5bb6 debc
00000390: cda7 35be 3604 163e 56d4 78bd 2f72 bbbc
000003a0: 6797 33be 5e35 9b3d c3dc 2e3c 61a3 e73d
000003b0: 3d5c cd3d 6683 b6bd 1ead 1b3e 7030 bc3d
000003c0: 5552 13b9 5fe0 e5bd b0cd 79bd d285 6f3d
000003d0: 3444 133d e133 e4bc 5ee7 963d 4c39 84bd
000003e0: 2cb5 de3d fcb2 ec3d c765 1ebd 38ad a93c
000003f0: ccc9 67bc 6a20 04bd 96d5 5fbc de75 9b3d
0.16373223 -0.16071676 -0.068468325 -0.023230674 -0.022144297 -0.02735868 0.1415909 -0.08907438
0.067212164 0.101844296 0.03182564 -0.060680274 -0.10929563 0.13074374 -0.094149664 -0.06232541
-0.08224409 0.062282704 -0.13445151 -0.1318357 0.16222784 0.036703195 -0.034131624 0.17300615
0.044095986 -0.12763664 0.05940099 0.0012707469 0.10301979 -0.124819025 -0.16676566 0.06312316
-0.14644183 -0.0044653374 -0.043236524 0.16273925 -0.048788864 0.12420646 -0.1188369 0.060500156
0.024917156 0.029418787 0.175547 0.16771477 0.004732081 -0.20202164 -0.20985249 -0.036181636
-0.12670274 0.109661475 -0.0483421 0.08993667 -0.07119106 -0.104266845 -0.00395207 0.092855975
-0.06336129 0.028317926 0.09929138 0.09070443 -0.011949808 0.066077426 -0.062609255 -0.06410373
-0.18639828 -0.072607964 0.038203206 0.030658389 -0.12745541 -0.12575948 0.06492376 -0.061874278
0.09561989 0.003830434 0.0008068599 0.2650931 0.07711559 0.1391807 -0.095355704 -0.060343683
-0.07378645 -0.07278542 -0.0377331 -0.09633111 0.08417212 -0.00035656642 0.12782887 0.06403109
-0.04298985 0.0034463739 0.05958859 0.026450071 0.07105623 -0.19138399 -0.012270331 -0.15702169
0.00738647 0.024197036 -0.03278128 -0.054913346 -0.033506025 -0.041822456 -0.20322026 0.10149337
-0.15500933 -0.038270548 0.020064436 0.07729295 -0.11311033 0.10255181 0.3277734 0.13192116
-0.16289555 0.18050995 0.10974487 -0.0015990895 -0.10685806 0.070678115 0.060823582 -0.09084747
0.07727595 0.08671644 0.059089676 -0.008927154 0.0478471 0.025404528 -0.085512385 0.002784754
0.1628522 -0.12902108 0.03430141 0.12283705 0.06476402 0.16058864 0.017134218 0.043178942
0.056639228 -0.11621565 -0.018565763 0.05767528 0.04503938 0.08886931 -0.09146377 0.06944172
0.092907846 0.0252035 -0.0812985 0.08116893 0.06693184 0.070926294 0.12165949 0.05921835
-0.06445038 -0.07587795 0.23716275 0.012853885 -0.10254467 -0.10648135 0.22019328 -0.020145776
0.038269505 -0.049718216 -0.06363292 0.1109259 -0.19001287 0.12912972 -0.0994843 0.065034814
6.380461e-05 0.10935129 0.08624178 -0.16450702 0.09429822 0.0034805662 0.011683791 0.020006195
0.09796231 -0.19574274 -0.04780007 0.04288637 0.12141821 0.042844545 -0.0516565 -0.16782826
-0.027590558 -0.07904007 0.043217354 -0.074610755 0.09121956 0.082769595 -0.0028480492 0.0498744
-0.0064367983 0.04974893 0.054103404 0.07967224 -0.11016498 0.16098097 0.20349725 -0.019949067
-0.21947011 0.08078004 0.08683231 0.031789515 0.030425662 0.11172991 0.064719684 0.13456184
0.08757769 -0.068604365 0.227619 -0.07222822 -0.10870692 -0.033516265 0.22853266 -0.02714579
0.018960446 0.13183746 0.107654124 0.061380308 0.011404803 -0.018194882 0.0009831776 0.043759603
0.15926099 -0.060901325 0.082797796 -0.027186563 -0.17739792 0.14650044 -0.060749374 -0.022881595
-0.17538224 0.07578538 0.010672751 0.11310459 0.10027359 -0.08911781 0.15202758 0.09188926
-0.00014049684 -0.11224436 -0.060987175 0.05847723 0.035953715 -0.027856769 0.073683485 -0.06456241
0.108743995 0.11557576 -0.03867128 0.02071248 -0.014147233 -0.032257475 -0.013661763 0.07590841

fc2.bias f4 [10]
00000000: edc2 463d f4fb b33d 22f5 993c fa5c 6d3d
00000010: eac5 14bd 1aaf b4bd 25c8 1c3d b23b 243c
00000020: 035c 833c fbb4 87bd
0.04852574 0.087882906 0.018793646 0.057949997 -0.036321558 -0.088224605 0.03827681 0.010023998
0.016035086 -0.06626316
